…
 /opt/conda/lib/python3.10/site-packages/scipy/__init__.py:146: UserWarning: A NumPy version >=1.16.5 and <1.23.0 is required for this version of SciPy (detected version 1.23.5
12.3s 2 warnings.warn(f"A NumPy version >={np_minversion} and <{np_maxversion}"
13.5s 3 cuda
25.4s 4 ==========================================================================================
25.4s 5 Layer (type:depth-idx)                   Output Shape              Param #
25.4s 6 ==========================================================================================
25.4s 7 Classifier                               [32, 2]                   --
25.4s 8 ├─Sequential: 1-1                        [32, 2]                   --
25.4s 9 │    └─Conv2d: 2-1                       [32, 32, 298, 298]        896
25.4s 10 │    └─ReLU: 2-2                         [32, 32, 298, 298]        --
25.4s 11 │    └─Conv2d: 2-3                       [32, 64, 296, 296]        18,496
25.4s 12 │    └─ReLU: 2-4                         [32, 64, 296, 296]        --
25.4s 13 │    └─MaxPool2d: 2-5                    [32, 64, 148, 148]        --
25.4s 14 │    └─Conv2d: 2-6                       [32, 128, 146, 146]       73,856
25.4s 15 │    └─ReLU: 2-7                         [32, 128, 146, 146]       --
25.4s 16 │    └─Conv2d: 2-8                       [32, 256, 144, 144]       295,168
25.4s 17 │    └─ReLU: 2-9                         [32, 256, 144, 144]       --
25.4s 18 │    └─MaxPool2d: 2-10                   [32, 256, 72, 72]         --
25.4s 19 │    └─Conv2d: 2-11                      [32, 512, 70, 70]         1,180,160
25.4s 20 │    └─ReLU: 2-12                        [32, 512, 70, 70]         --
25.4s 21 │    └─Conv2d: 2-13                      [32, 1024, 68, 68]        4,719,616
25.4s 22 │    └─Dropout2d: 2-14                   [32, 1024, 68, 68]        --
25.4s 23 │    └─ReLU: 2-15                        [32, 1024, 68, 68]        --
25.4s 24 │    └─MaxPool2d: 2-16                   [32, 1024, 34, 34]        --
25.4s 25 │    └─BatchNorm2d: 2-17                 [32, 1024, 34, 34]        2,048
25.4s 26 │    └─Conv2d: 2-18                      [32, 128, 34, 34]         131,200
25.4s 27 │    └─Flatten: 2-19                     [32, 147968]              --
25.4s 28 │    └─Dropout: 2-20                     [32, 147968]              --
25.4s 29 │    └─Linear: 2-21                      [32, 256]                 37,880,064
25.4s 30 │    └─Sigmoid: 2-22                     [32, 256]                 --
25.4s 31 │    └─Linear: 2-23                      [32, 128]                 32,896
25.4s 32 │    └─Sigmoid: 2-24                     [32, 128]                 --
25.4s 33 │    └─Linear: 2-25                      [32, 64]                  8,256
25.4s 34 │    └─Sigmoid: 2-26                     [32, 64]                  --
25.4s 35 │    └─Linear: 2-27                      [32, 2]                   130
25.4s 36 │    └─Softmax: 2-28                     [32, 2]                   --
25.4s 37 ==========================================================================================
25.4s 38 Total params: 44,342,786
25.4s 39 Trainable params: 44,342,786
25.4s 40 Non-trainable params: 0
25.4s 41 Total mult-adds (T): 1.19
25.4s 42 ==========================================================================================
25.4s 43 Input size (MB): 34.56
25.4s 44 Forward/backward pass size (MB): 6415.86
…
