…
19.5s 2 /opt/conda/lib/python3.10/site-packages/torch/nn/modules/lazy.py:180: UserWarning: Lazy modules are a new feature under heavy development so changes to the API or functionality can happen at any moment.
19.5s 3 warnings.warn('Lazy modules are a new feature under heavy development '
32.6s 4 ==========================================================================================
32.6s 5 Layer (type:depth-idx)                   Output Shape              Param #
32.6s 6 ==========================================================================================
32.6s 7 Classifier                               [32, 2]                   --
32.6s 8 ├─Sequential: 1-1                        [32, 2]                   --
32.6s 9 │    └─Conv2d: 2-1                       [32, 32, 298, 298]        896
32.6s 10 │    └─ReLU: 2-2                         [32, 32, 298, 298]        --
32.6s 11 │    └─Conv2d: 2-3                       [32, 64, 296, 296]        18,496
32.6s 12 │    └─ReLU: 2-4                         [32, 64, 296, 296]        --
32.6s 13 │    └─MaxPool2d: 2-5                    [32, 64, 148, 148]        --
32.6s 14 │    └─Conv2d: 2-6                       [32, 128, 146, 146]       73,856
32.6s 15 │    └─ReLU: 2-7                         [32, 128, 146, 146]       --
32.6s 16 │    └─Conv2d: 2-8                       [32, 256, 144, 144]       295,168
32.6s 17 │    └─ReLU: 2-9                         [32, 256, 144, 144]       --
32.6s 18 │    └─MaxPool2d: 2-10                   [32, 256, 72, 72]         --
32.6s 19 │    └─Conv2d: 2-11                      [32, 512, 70, 70]         1,180,160
32.6s 20 │    └─ReLU: 2-12                        [32, 512, 70, 70]         --
32.6s 21 │    └─Conv2d: 2-13                      [32, 1024, 68, 68]        4,719,616
32.6s 22 │    └─Dropout2d: 2-14                   [32, 1024, 68, 68]        --
32.6s 23 │    └─ReLU: 2-15                        [32, 1024, 68, 68]        --
32.6s 24 │    └─MaxPool2d: 2-16                   [32, 1024, 34, 34]        --
32.6s 25 │    └─BatchNorm2d: 2-17                 [32, 1024, 34, 34]        2,048
32.6s 26 │    └─Conv2d: 2-18                      [32, 128, 34, 34]         131,200
32.6s 27 │    └─Flatten: 2-19                     [32, 147968]              --
32.6s 28 │    └─Dropout: 2-20                     [32, 147968]              --
32.6s 29 │    └─Linear: 2-21                      [32, 256]                 37,880,064
32.6s 30 │    └─Sigmoid: 2-22                     [32, 256]                 --
32.6s 31 │    └─Linear: 2-23                      [32, 128]                 32,896
32.6s 32 │    └─Sigmoid: 2-24                     [32, 128]                 --
32.6s 33 │    └─Linear: 2-25                      [32, 64]                  8,256
32.6s 34 │    └─Sigmoid: 2-26                     [32, 64]                  --
32.6s 35 │    └─Linear: 2-27                      [32, 2]                   130
32.6s 36 │    └─Softmax: 2-28                     [32, 2]                   --
32.6s 37 ==========================================================================================
32.6s 38 Total params: 44,342,786
32.6s 39 Trainable params: 44,342,786
32.6s 40 Non-trainable params: 0
32.6s 41 Total mult-adds (T): 1.19
32.6s 42 ==========================================================================================
32.6s 43 Input size (MB): 34.56
32.6s 44 Forward/backward pass size (MB): 6415.86
…
